backend/scripts/models/mnist_cnn.pt (torch, 903721 bytes, 8 tensors)

conv1.weight f4 [32, 1, 3, 3]
000000 9a 30 df be 9a 3d dd be 5c ce df be 1a 3c 84 3c
       -0.43591768 -0.4321106 -0.43712127 0.01614194
000010 47 84 34 3e 14 f7 b0 3e 30 fa 8f 3e 5c 27 4d 3e
       0.17628585 0.34563506 0.28120565 0.20034546
000020 85 1c 33 3e 96 80 1d 3e 1b 41 ff bd 03 69 10 bf
       0.17491348 0.15381083 -0.1246359 -0.56410235
000030 8e 11 24 3d 66 67 81 be 5a 7c 95 3e 25 0c ec 3e
       0.040055804 -0.252742 0.29196435 0.46103016
000040 8a 7f 11 3e ce 41 c1 3d c5 c2 a7 3e 07 a4 1d 3e
       0.14208809 0.094363794 0.32765785 0.15394603
000050 fb 0d c2 3e d2 cb 9e 3e 6a f9 81 3e 31 92 bb bd
       0.3790129 0.31014878 0.253856 -0.09158743
000060 fc c3 70 3e 0a a4 ec 3d 9f 60 b0 be f8 a0 fb bd
       0.23512262 0.115547255 -0.34448716 -0.12286562
000070 69 26 02 3f 46 68 78 3e 9e e4 0b bf ca 1c dc be
       0.5083986 0.24258527 -0.5464572 -0.42990714
000080 4a 0e 47 be 0b 7a 3f be 34 00 c1 be 7d 97 f6 be
       -0.19439045 -0.186989 -0.37695467 -0.4816245
000090 2a 77 dd bc 18 06 80 3e 30 96 dc bd fc a4 ab bd
       -0.02703436 0.2500465 -0.107708335 -0.08381078
0000a0 7b 94 b4 3d d3 cf 67 be fd f1 e1 3e b5 48 e0 3e
       0.08817383 -0.22637872 0.44129935 0.4380547
0000b0 aa ff 4c 3e 84 d3 46 3e 74 02 70 be 54 e7 24 3d
       0.20019403 0.19416624 -0.23438436 0.040259674
0000c0 54 20 18 3e 27 8a 37 be ee 95 8c be 98 09 c1 3e
       0.14856082 -0.17923795 -0.27458137 0.37702632
0000d0 65 ef 01 bf f9 7c 0f 3e 7a 87 91 3e 56 20 a7 3e
       -0.5075591 0.14012517 0.28423673 0.32641858
0000e0 aa b1 19 be 69 46 d6 3e c2 5a 37 be ce 24 17 3e
       -0.1500918 0.41850594 -0.17905715 0.14760134
0000f0 73 e0 9a 3d 92 ab 28 3e c5 25 fa be d3 bb 35 3e
       0.075623415 0.16471699 -0.4885694 0.1774743
000100 e1 6e c8 3d 95 f0 28 3e b1 b1 b5 be 2a 32 0e 3d
       0.097867735 0.16498025 -0.3548713 0.03471581
000110 0c 5c fc 3e 26 fe 79 3e 20 30 8b be b2 82 a5 3e
       0.49288976 0.24413356 -0.27185154 0.32326275
000120 50 5e f3 bd b5 8b 4d bd 8f a2 0a 3c f9 81 83 3e
       -0.11883223 -0.050182063 0.008461609 0.256851
000130 d7 ea 98 3e cf 0e b3 3e ef f6 0d 3e 1c 55 0d 3e
       0.2986667 0.34972236 0.13863729 0.13801998
000140 d1 9c 19 3e c1 84 92 be bd f1 df 3e ab 3d dd 3e
       0.15001227 -0.28616908 0.4373912 0.4321111
000150 4d 11 14 be 9f 4e 77 3e 4e bc 36 3e 07 f0 3e 3e
       -0.14459725 0.24151085 0.1784527 0.1864625
000160 4b e0 a7 bd cb 55 cf be 37 50 64 bd e4 2f bf 3e
       -0.08197077 -0.40495142 -0.05574056 0.37341225
000170 57 f7 1e 3e d5 f0 cc 3d 17 14 f4 3e cb 60 4b 3e
       0.1552404 0.100068726 0.47671577 0.19861142
000180 b7 eb b0 3d 1b 68 e2 be 71 44 03 bf 5a d1 6e bd
       0.08638709 -0.4422005 -0.5127631 -0.058305122
000190 7d b8 80 3e 92 ab fe bd 8a 10 e1 bc 45 94 11 3e
       0.25140753 -0.12435068 -0.027473707 0.14216717
0001a0 92 75 cf 3e 81 ba 62 3d 95 e0 d8 3e c8 09 21 bd
       0.40519387 0.055353645 0.42358842 -0.03931597
0001b0 99 49 a2 3e b2 35 54 be bd c7 8c be 83 0a ac 3c
       0.31696776 -0.20723608 -0.27496138 0.021001106
0001c0 8c b3 ed 3d 48 42 35 3e 39 69 cd 3e e6 a3 bc 3e
       0.116065115 0.17701066 0.4011934 0.36843795
0001d0 30 6b a2 bd ca c3 d0 be 43 ae 58 3e d8 28 92 3d
       -0.07930601 -0.40774375 0.21160226 0.071366966
0001e0 db c7 9f be 37 44 af be 52 6b 85 3e 80 f9 00 be
       -0.31207165 -0.3423173 0.2605844 -0.12595177
0001f0 03 fc ac be 3b 1d 37 be 07 fe 76 3e bc 8a 66 3e
       -0.3378602 -0.17882244 0.24120341 0.2251386
000200 07 a3 b5 3e c5 9e 25 3e 50 8f 1d 3c d0 1e 71 3b
       0.35475942 0.16173847 0.009616688 0.0036792047
000210 9a 0f 08 bf 09 30 a9 be 5b 11 d1 be 2a b5 6b 3b
       -0.53148806 -0.3304446 -0.40833554 0.0035966136
000220 71 28 e1 3d 46 86 f7 bc d3 8d 8a 3e 05 08 10 3e
       0.10994042 -0.030215394 0.27061328 0.14065559
000230 bc 9d 3d 3e f0 4d aa 3e fc 0e 3d 3e a8 ac f0 bd
       0.18517202 0.33262587 0.18462747 -0.117516816
000240 e6 68 f3 bd 30 55 fc bc f3 1b 01 be b8 c8 41 be
       -0.11885242 -0.03080234 -0.12608318 -0.18924224
000250 0c 09 d6 3d 4e f0 69 be a0 67 09 bd 68 6d 6c be
       0.10450944 -0.22845575 -0.03354609 -0.2308861
000260 58 08 1e bd 90 61 95 be cd 71 65 be 12 93 e8 be
       -0.038582176 -0.29175997 -0.22406693 -0.45424706
000270 b3 78 dc bd 81 e8 91 be e2 86 0b 3e 05 3e b3 be
       -0.10765209 -0.284977 0.13625672 -0.35008255
000280 42 54 51 3e a4 89 2f 3c 99 07 a0 3e f4 97 4c bd
       0.20442298 0.010713968 0.31255797 -0.0499496
000290 6e 85 ce be 7b 48 8e 3d 55 5d a7 3e 74 6f e6 be
       -0.40336174 0.06947418 0.32688394 -0.45006907
0002a0 f4 cc e0 3e 7d e2 68 3d c5 ee 80 bd 04 82 ae 3e
       0.43906367 0.05685662 -0.06295542 0.3408357
0002b0 78 be 0e 3e eb be b4 3d 9e fc dc 3e f9 f3 c6 3e
       0.13939846 0.08825477 0.43161482 0.3885801
0002c0 9c 89 59 be b3 b7 1a 3e 65 8d 3a be 11 ea 08 bf
       -0.212439 0.15109138 -0.18218 -0.53482157
0002d0 22 8f bc 3e 1c ae 56 be 70 d5 9e be 06 bb 2c 3e
       0.36827952 -0.20964855 -0.31022215 0.16868219
0002e0 2d db af 3e 85 fa 86 3e 20 d8 87 bd 64 d0 06 be
       0.34346905 0.26363006 -0.066330194 -0.13165432
0002f0 2f 93 9a 3e 1f f4 57 be bb 9c ed be b9 63 97 be
       0.30190417 -0.21089219 -0.46408638 -0.2956827
000300 95 a4 8e bd 32 a1 bd 3c 09 92 8d be dd 7b 86 3e
       -0.06964985 0.023148153 -0.27650478 0.26266375
000310 94 54 b9 3e ba 56 f4 3e fe 1f 83 3e 49 5c ca 3d
       0.3619734 0.47722417 0.25610346 0.09880883
000320 d7 b8 e3 be 75 ca 47 3e e0 bf 87 3a ab f9 46 be
       -0.4447696 0.19510825 0.0010356866 -0.19431178
000330 38 bc 84 be 9e ce c3 3e 2c 9b 48 3e 5b 76 e1 3d
       -0.2592485 0.38243574 0.19590443 0.11008903
000340 ca a9 a7 3e 9a 14 1d 3e 7e f6 4c be ad ce a6 3d
       0.32746726 0.1533989 -0.20015904 0.08144889
000350 59 cf a3 bd fc b4 85 3e 52 3f b9 3e 26 81 04 3e
       -0.07998533 0.26114643 0.36181122 0.12939891
000360 3c 6e 7c 3e eb 14 cf be 50 79 8b be aa 17 bb bd
       0.24651426 -0.40445647 -0.27240992 -0.09135373
000370 28 52 67 3e 8f 46 ba be 95 6e 9a 3e 89 bb ac 3e
       0.22589934 -0.36381957 0.30162492 0.33736828
000380 58 f1 3e 3e bf 7a 84 3e 26 51 90 3e dc 3c 20 3e
       0.18646753 0.25874898 0.2818691 0.15648216
000390 a6 5a 3f bd ed 60 c1 bd ce d7 62 3e 2c af b1 3e
       -0.04671731 -0.09442315 0.22152635 0.34703958
0003a0 6b df 42 3e ae fb b2 3e d6 3b 5c be 62 9d 34 be
       0.1903054 0.3495764 -0.215072 -0.17638162
0003b0 7a b6 d8 be 9b 1a fb 3c 92 27 90 bd 1d ac 8a 3e
       -0.4232672 0.030652335 -0.070387974 0.27084437
0003c0 a3 17 08 3f 90 85 e9 3c ed 0c c3 3c 40 e1 98 3e
       0.53161067 0.02850607 0.023809874 0.29859352
0003d0 73 4a c2 3e 37 23 a9 be bc 23 7c 3e 7b 3e b9 3b
       0.37947425 -0.3303468 0.24623007 0.0056532
0003e0 0e ed 68 3e db 59 99 bc af 23 db 3e 4c 70 69 bd
       0.22746679 -0.018719604 0.42800662 -0.05699186
0003f0 0f 62 02 3d e8 e9 94 3d 97 3f cd bd 20 24 7a 3e
       0.031831797 0.072711766 -0.100218944 0.24427843

conv1.bias f4 [32]
000000 19 46 e9 3d 21 f1 69 3a 7b 17 c7 3c a5 61 bc 3e
       0.11390323 0.00089241756 0.024303189 0.36793247
000010 d5 9d b7 bd 36 5e 29 3e 89 e7 f9 3d 1d cd 5a be
       -0.08965651 0.16539845 0.12202365 -0.21367307
000020 06 d6 f9 3d 96 81 70 bb 3b 29 30 3d 2a b2 bd bb
       0.12199025 -0.0036698333 0.04300807 -0.005789061
000030 ef 5f 9a 3d ce 91 9a 3e 81 b9 8e 3e cf 3b f0 3d
       0.07537829 0.30189365 0.27875903 0.117301576
000040 04 42 e5 bd a2 c2 c8 3e 01 d0 69 bd c5 1d 41 bb
       -0.11194232 0.39210993 -0.057083134 -0.0029467207
000050 64 57 a8 be df 98 47 3e ed f7 27 bb 11 ef bf bc
       -0.32879174 0.1949191 -0.0025629953 -0.023429425
000060 9c 69 8f bc be c4 d1 bc 07 e9 a9 3a 78 63 86 bd
       -0.017506413 -0.02560651 0.0012963124 -0.06561941
000070 3d fe b1 bc a0 64 57 bb 45 a9 36 3e 7d 1d 1c 3e
       -0.021727676 -0.0032866374 0.17838009 0.15245624

conv2.weight f4 [64, 32, 3, 3]
000000 10 c8 0d 3c 2e 06 8a bd 21 da 9d bc 74 54 92 bd
       0.008653656 -0.0673946 -0.019269051 -0.071450144
000010 a3 79 99 3a 51 a2 80 bd d0 40 7c bc 12 87 a0 bc
       0.0011709224 -0.062809594 -0.015396312 -0.019595657
000020 fb 47 34 bd 9c 75 61 3d bb c0 2e bd 45 95 73 bd
       -0.04401396 0.0550438 -0.04266427 -0.059468526
000030 f0 50 36 3d 24 d4 bb bd a3 10 02 bd ac 01 7f bd
       0.04451078 -0.09171322 -0.031754147 -0.062257454
000040 90 d8 be bd 2f 5d de 3b eb c9 16 3d b0 7d aa bd
       -0.0931865 0.0067860107 0.036813658 -0.08324754
000050 01 b0 cf 3d 18 9d 6e 3d b4 30 05 be f8 56 4b 3c
       0.10140992 0.058255285 -0.1300686 0.012410872
000060 52 b8 a4 3b 8f ba 38 bd 05 2d 81 3d 63 af d3 3c
       0.0050268555 -0.04509979 0.06307415 0.025840467
000070 92 5a 60 bd 69 0e 1b be 58 cc 90 bc 9d ed 3e 3d
       -0.054773875 -0.15142216 -0.017675564 0.046613324
000080 60 9f 76 be 61 1a 5b 3d e1 9c 92 bc a3 30 59 be
       -0.24084234 0.053491954 -0.017897071 -0.2120996
000090 04 4b 9a 3d 6e ab 26 be 30 35 af 3c 48 ff 34 bc
       0.07533839 -0.16276333 0.021387666 -0.011047192
0000a0 0e 1b e3 bd 6b fb 7c 3c 66 42 aa bd de 83 04 3c
       -0.11089145 0.015440802 -0.08313446 0.00808808
0000b0 a4 a7 da 3d 8a c3 cd 3b c5 74 7c 3d ff b1 07 3c
       0.10676506 0.0062794136 0.061634798 0.008282184
0000c0 fc b6 8c 3c 8a 73 8a bc b0 72 93 bd f2 c4 7a 3d
       0.017177097 -0.016900796 -0.07199609 0.061222978
0000d0 0a 0e 93 bc a6 fd 4a 3d 16 eb f0 3c fa 35 8b bd
       -0.01795103 0.049558304 0.029408973 -0.067974046
0000e0 1e aa 3d 3c 07 e4 3f 3d e6 39 ce bd 83 86 12 3d
       0.011576204 0.046848323 -0.10069637 0.03577281
0000f0 c5 20 af 3d 08 6a 96 bd 9a ed 66 3d 98 55 fd bd
       0.08551172 -0.073444426 0.05637894 -0.12369841
000100 d8 8f 90 bd 80 9d dc 3d e4 a8 bf bd 17 76 bb 3c
       -0.07058686 0.10772228 -0.09358385 0.022883458
000110 d4 78 59 3d 3d 14 b5 bd 39 bf 3d 3d 9b 5c f4 3d
       0.053093746 -0.08841751 0.046324942 0.119317256
000120 09 53 ad 3c ad de 44 bd 3e 9f e2 3d cc 2e 3a bd
       0.021157758 -0.048063923 0.11065529 -0.045454785
000130 57 28 4a bd 68 ac 8d 3c 80 ca 93 bb 70 99 1e 3d
       -0.049354877 0.017294124 -0.004510224 0.03872055
000140 4d bd 58 3d f9 dd 42 bd 7e 62 ec bd d0 02 0d 3e
       0.052914906 -0.04757497 -0.115422234 0.13770604
000150 bd c3 77 3b 02 30 16 be d1 4b 6e 3d f0 ab a5 bd
       0.0037805878 -0.14666751 0.058177773 -0.08089435
000160 fe a8 b3 3c 63 12 e4 3d de bc ee 3b 4e 41 01 be
       0.021931168 0.111363195 0.0072856983 -0.12622568
000170 2c 3f 6d bd f7 ce f5 bb f8 d0 2d be 27 6e 89 3d
       -0.057921574 -0.007501479 -0.16974247 0.06710463
000180 75 aa b2 bd 41 56 6b be 3b c9 2c bd 04 24 0e 3d
       -0.08723918 -0.22982122 -0.042184096 0.034702316
000190 e3 c4 18 be e5 6f fa 3d 6e 02 b3 bd 7a 77 e8 bc
       -0.14918856 0.122283734 -0.08740698 -0.028377283
0001a0 7d d9 f6 3d 62 f0 94 bd 82 1b 06 3d a6 ab fb 3d
       0.12053201 -0.07272412 0.032741077 0.12288599
0001b0 c5 6b 4d 3c 7e 4f f9 bd 02 89 bc 3c b5 db 5a 3d
       0.012537901 -0.12173365 0.02301455 0.053432185
0001c0 26 9b cd bd e7 87 75 3d c8 1c 91 bd db fe c1 bc
       -0.10039358 0.05994406 -0.07085568 -0.023681095
0001d0 ea e7 98 3d a8 22 c8 3a 61 06 a6 3c 2b 36 4f 3d
       0.07466109 0.0015269117 0.020266714 0.050588768
0001e0 79 0f 29 3d 16 8c f1 3c 7a 2b fb bc 9f d1 97 bb
       0.04127452 0.029485743 -0.03066038 -0.004633143
0001f0 8b 76 80 3d f7 37 29 3c 38 cc e3 39 c5 d2 e4 bb
       0.0627261 0.010328284 0.0004344897 -0.0069831335
000200 6f 4b 0a be 93 73 f5 3c 14 a8 81 bd 11 dd 0b be
       -0.13505338 0.029962337 -0.063308865 -0.13658549
000210 6d 24 1b 3d b3 8b 92 bd cf 24 14 be 0d 83 de bc
       0.037876535 -0.07155552 -0.14467166 -0.0271621
000220 77 86 a0 bd 76 e5 6f 3d ac 50 ac 3c 41 ea db bd
       -0.07838147 0.05856844 0.021034561 -0.1073804
000230 31 34 0c 3d 53 99 0c bd 03 0d b3 bc 53 a8 c4 3d
       0.03422946 -0.03432591 -0.02185679 0.09602418
000240 d7 f0 2c bd 0e e6 8f bc cd cf 51 bd 80 91 21 3a
       -0.04222187 -0.017565753 -0.051223565 0.0006163344
000250 52 fe 8a bc 4c 5f a6 bb e4 8e 3f bc 36 90 c5 bc
       -0.016966973 -0.0050772782 -0.011691783 -0.024116617
000260 1c 2a c0 bc 1d 12 c6 bc 4c 92 89 bc bb df a3 3d
       -0.02345758 -0.024178559 -0.016793393 0.080016576
000270 2f 07 16 3d 9e 18 d5 3b 33 e8 07 bd 94 c1 b2 bc
       0.036627945 0.0065031787 -0.033180427 -0.02182082
000280 98 b3 ad 3d 87 67 c9 bd c3 2e 5a 3e 62 07 c3 bd
       0.084815204 -0.098341994 0.213069 -0.095228925
000290 2f e4 60 bd e5 7c 1d 3e 82 3e 91 bd e1 75 0d 3d
       -0.054905113 0.15379675 -0.070920005 0.034536246
0002a0 85 46 82 3d 3e 56 b7 bd 58 76 d7 3d 48 62 96 3b
       0.06361107 -0.08951996 0.10520619 0.0045893528
0002b0 a8 54 d2 bd 31 6a be bd 0a 9d c8 3d 74 f7 14 be
       -0.10270053 -0.09297598 0.09795578 -0.14547521
0002c0 1f 9a b7 3d b5 b2 f8 3c ae 62 d9 bd 61 57 09 3c
       0.08964943 0.030358652 -0.10614525 0.008382649
0002d0 6e f7 67 3d 60 f8 63 be 22 2f f0 bd f3 fa 1c bd
       0.05663245 -0.22262716 -0.1172774 -0.03832526
0002e0 29 79 9e bd c5 a0 5d be d6 eb 1a bd a0 4e f5 bd
       -0.07737953 -0.2164336 -0.037822567 -0.11977887
0002f0 a4 91 12 be 17 c4 4d bd 83 62 b6 3c dc 4a 02 bd
       -0.1431337 -0.050235834 0.02226377 -0.031809673
000300 c0 05 d9 bc 78 e8 8a bd d2 eb a0 bd d5 04 e4 bc
       -0.026492 -0.06782621 -0.07857479 -0.027834335
000310 21 e9 c1 3c 6c 9f 2b be 30 69 00 b8 83 bc 03 be
       0.023670735 -0.16760033 -3.061554e-05 -0.1286488
000320 9c 04 89 bd 1f 0f ab bd 2c 7d 30 be d4 58 5d bd
       -0.06690332 -0.083524935 -0.1723525 -0.05403979
000330 79 d4 a6 bd 08 a9 cf bd e1 e4 04 3e e8 34 fa 3c
       -0.08145995 -0.10139662 0.12977935 0.030542806
000340 c6 8c dc bc 65 e8 e1 3d f6 fb b9 bc 1b fb 0d bd
       -0.026922595 0.11030654 -0.022703152 -0.0346633
000350 65 5a 1f 3d 11 7d ba bd 8d 5e 09 bc e2 47 15 3e
       0.038904566 -0.09105886 -0.008384359 0.14578202
000360 54 cb 94 3d e9 61 15 be 59 42 1a be 24 73 71 3d
       0.07265344 -0.14588131 -0.15064372 0.058947697
000370 35 09 34 be 43 2a 98 bd 5d 51 32 bd 7a 6d 04 be
       -0.17581637 -0.07429936 -0.043534625 -0.12932387
000380 65 b6 2c 3d 3c 71 18 bd 03 9c 88 bd 53 97 52 3d
       0.042166132 -0.037217364 -0.06670382 0.051413845
000390 e0 98 74 bd ee 19 04 bc 4d ed c1 3d f9 66 a9 bc
       -0.059716105 -0.008062823 0.0946909 -0.020678984
0003a0 95 c1 97 3d 8b 27 7a 3d ca 6c 40 3e d7 a6 17 3a
       0.0740997 0.061072867 0.187915 0.0005785054
0003b0 bf 43 0d be f3 c0 0f 3e f8 b8 24 be 9e c3 22 be
       -0.13795374 0.14038448 -0.16086185 -0.15894935
0003c0 f9 45 2a be d4 0f 70 be 51 62 00 be bc ce 92 3c
       -0.16628255 -0.23443538 -0.12537505 0.017920844
0003d0 c7 f1 c2 bd 11 ba 42 3d fc a5 c7 3c 1b 0b 29 be
       -0.095187716 0.047540728 0.02437114 -0.16508143
0003e0 0a bf 17 3d 00 9c 0c bd c7 72 ac bd 7e 76 e8 3d
       0.037047423 -0.03432846 -0.084203295 0.113507256
0003f0 07 d3 2b bd 37 09 29 be cc 11 06 3e 52 0b 92 bd
       -0.0419493 -0.16507421 0.13092726 -0.071310654

conv2.bias f4 [64]
000000 44 15 05 3d f6 ff e3 bc 46 86 bb 3c cd 02 41 3c
       0.032490984 -0.027832013 0.022891175 0.011780453
000010 75 af 4d bb 23 0f 83 bd 29 96 59 bc 8d fb 8d bd
       -0.0031385098 -0.063993715 -0.01328043 -0.06932745
000020 76 31 ae bd a9 69 d7 bd 76 94 c5 bc 9e 08 98 bc
       -0.08505528 -0.105182 -0.024118643 -0.018558796
000030 43 b7 70 3c 82 f2 af bd a1 64 e5 bd 1b ad 78 bd
       0.0146921305 -0.085911766 -0.11200834 -0.06071196
000040 00 e3 a5 bc e7 c8 00 3c e4 ec 03 bc 0d 4a e4 3c
       -0.020249844 0.007860399 -0.008052085 0.027867341
000050 59 bc 4f bd 21 30 81 bd 8d 84 b3 bd b7 9c 2d bd
       -0.05071673 -0.06308008 -0.087655164 -0.042385783
000060 ba b6 a9 bd d4 48 8a 3d d7 ab 6a bd bd e2 7f bd
       -0.082868055 0.06752172 -0.057292785 -0.062472094
000070 71 98 c1 bd cc 68 0d bd 2c 71 91 bd b0 71 c1 bc
       -0.09452904 -0.03452377 -0.07101664 -0.02361378
000080 3f 7e 3d bd b5 b9 5c 3d 12 a6 e5 bd 5d 3e ed bd
       -0.046262976 0.05388804 -0.11213316 -0.115841605
000090 ff ae 98 bd 26 a5 7a bd 86 44 8e bd 36 2a 37 3c
       -0.07455253 -0.061192654 -0.069466636 0.011179497
0000a0 82 15 e3 3c c9 78 03 bd aa 7b 5f bd 72 ca bd bb
       0.027720217 -0.03209761 -0.054561295 -0.0057919556
0000b0 c5 f3 8d bd bd 87 86 bd 7a 38 f4 bc 30 c4 21 3d
       -0.06931261 -0.06568859 -0.029812086 0.03949374
0000c0 50 1b 48 bd f8 dd 73 bd 6d c6 1d bd 5b 1c 87 bd
       -0.048854172 -0.059537858 -0.03851931 -0.06597205
0000d0 15 b4 28 bd 9c 21 8e bd ee d0 e4 bd ab b0 98 bd
       -0.041187365 -0.06940004 -0.11172663 -0.07455572
0000e0 1c f7 5d bd fe 43 23 bd d2 87 81 bc 9d 60 10 3d
       -0.05419074 -0.039859764 -0.015811834 0.035248388
0000f0 e7 77 6e bd 82 36 09 3d 17 4c b9 ba 1b c1 60 bd
       -0.058219817 0.03349925 -0.0014137056 -0.05487166

fc1.weight f4 [128, 1600]
000000 a7 42 66 bd 0d 8a d1 ba 90 bd 14 bc 66 4b 23 ba
       -0.05621591 -0.0015986577 -0.009078398 -0.0006229192
000010 8b c8 63 3d 6a ff 17 3c 7e 79 2c bc d0 e9 67 3c
       0.055611175 0.009277204 -0.010527013 0.014154866
000020 85 bf 82 3d 43 8d 57 3d 67 32 c9 bc 5c 76 8e 3c
       0.06384186 0.052624952 -0.024560167 0.017390423
000030 7d 47 e8 3c d6 fa 98 3b 9d c2 78 3c 00 c4 61 bc
       0.0283544 0.004668574 0.015183118 -0.01377964
000040 28 a2 1b bd c3 d2 d5 bc 6d 7a 4e 3d 50 47 99 3d
       -0.03799644 -0.026101476 0.050409723 0.07484305
000050 d8 08 ce bc 91 53 35 bd c3 87 02 3e 8b ea eb 3d
       -0.025150701 -0.04426915 0.12747101 0.11519345
000060 7c 2b 9f 3c 9d 32 ff bc e9 34 c1 bc 59 e0 56 bd
       0.019429915 -0.031152064 -0.0235848 -0.05246005
000070 b1 a3 b4 bd 1a 28 0a bd 6b 0d 0b bd 3c db 4b 3c
       -0.08820284 -0.03372965 -0.033948343 0.012442406
000080 76 82 48 bd a4 1f d1 3b 49 60 00 3d 8e 40 96 3a
       -0.048952542 0.0063819457 0.031341825 0.0011463331
000090 45 ea d1 bb 36 75 5e 3c 95 aa 70 3d 4b b5 25 3d
       -0.006406101 0.01357775 0.05875643 0.040456098
0000a0 df 86 6f bd 7e 24 2c 3c 3c 82 6b 3d f7 37 ad 3d
       -0.058478232 0.010506747 0.057497248 0.0845794
0000b0 b8 2b 62 bc b9 d8 f5 ba 00 44 b1 bc ea 16 55 3c
       -0.013804369 -0.0018756605 -0.02163887 0.013005951
0000c0 11 ab fb bb 93 c1 2f bd f6 ae 2a 3d fa 01 d3 3c
       -0.007680305 -0.042909216 0.041670762 0.025757778
0000d0 16 67 0a 3d 38 fc db 3b 51 af 00 3d ac 66 c9 3d
       0.033789717 0.0067134164 0.031417195 0.09834036
0000e0 24 fc 83 3c 3e 9c 21 3a 15 ea a0 bc d4 f6 54 3c
       0.016111441 0.00061649445 -0.019642869 0.012998302
0000f0 c8 9d 85 bd 24 9f d4 bc 25 aa c7 bb 20 84 87 bd
       -0.06524235 -0.02595479 -0.006093281 -0.06616998
000100 a4 a3 ab bd 0d 43 5e 3d 65 21 93 bb bc ad dd bb
       -0.08380821 0.054263163 -0.004490065 -0.0067650955
000110 22 54 0c bd 11 a5 03 bd c4 e0 e3 3d 85 89 65 3c
       -0.034259923 -0.03213984 0.11126855 0.014009838
000120 67 22 d4 bc 9f 3f fd bd d5 dc 46 be 15 d2 ea bc
       -0.02589531 -0.123656504 -0.19420178 -0.028664628
000130 9e d2 82 bc ee d0 2a bb 87 3d 6d bb df 04 f2 3c
       -0.01596957 -0.0026064473 -0.0036200003 0.029543338
000140 e9 04 1a bd ff 12 09 3d 32 34 24 bb 82 09 0d 3d
       -0.03760234 0.03346538 -0.0025055525 0.034432895
000150 91 e2 48 3d a9 0f e8 3b fd 99 e5 3b 37 47 27 3d
       0.049044196 0.007081945 0.007006882 0.0408394
000160 c0 62 d8 3c 0a d1 b4 3d d0 2a f0 bb c8 c4 f5 bb
       0.026414275 0.088289335 -0.0073293224 -0.007500265
000170 8d 39 ff bc 62 bc f7 b9 54 e4 43 3d 2a f1 a3 bc
       -0.031155372 -0.00047251867 0.047825173 -0.020012457
000180 83 b0 a5 bc b5 33 b2 3c 59 7e 18 3d 98 3d 0c 3d
       -0.020225769 0.021753171 0.03722987 0.034238428
000190 0f eb 02 3d f8 cc 83 3c d8 0f 42 bc dc eb cf 3b
       0.03196245 0.016088948 -0.011844598 0.0063452553
0001a0 a8 17 9d bc 1d c1 40 3b 4b 8e 49 bc a8 f4 2a bd
       -0.01917632 0.002941198 -0.012301992 -0.04173723
0001b0 77 5f b3 3b 08 22 0b 3d 46 7f a7 3c 7b 04 b2 3c
       0.005474027 0.033968 0.02044643 0.021730652
0001c0 65 d3 2c bb 28 41 0d 3d cc 31 26 3d 5b 24 98 3c
       -0.0026371118 0.034485966 0.040574834 0.018572023
0001d0 47 af 0d 3e 78 ae 64 3d 70 e9 d3 bc 7a ba fa 3c
       0.13836394 0.05583045 -0.025868148 0.030606497
0001e0 12 96 fa bc 18 26 92 3b ae f1 e5 3d dd 22 85 3d
       -0.030589137 0.0044601075 0.11227737 0.0650079
0001f0 4f f4 4a 3c 4f 82 17 bd f3 9d 7b 3c 89 fa 80 3d
       0.012387349 -0.036989506 0.015357482 0.06297786
000200 56 be 8d bb 34 5a 24 3d f0 e8 2d 3d 4a c8 0e 3d
       -0.0043256683 0.040125087 0.042458475 0.03485898
000210 dd c9 d9 3c 08 19 b7 bc c5 b1 02 be 99 b1 dd 3a
       0.026585514 -0.022350803 -0.12763126 0.001691389
000220 26 c2 43 bd a9 7e b6 3c 59 d4 be 3d 4d bd a6 bd
       -0.047792576 0.022277193 0.09317846 -0.08141575
000230 79 46 16 3c 26 ae d5 3d 32 d2 4e 3d 42 fc fd bc
       0.009172075 0.10433607 0.050493427 -0.031004075
000240 95 30 00 be 5b e9 94 bc 2c ab 95 bd 54 73 62 bd
       -0.12518533 -0.018177679 -0.07308039 -0.055285767
000250 14 3a f5 b9 24 3b 83 bd ad ad ca bc ae 5b ad bc
       -0.00046773313 -0.064077646 -0.024741018 -0.02116188
000260 2f a7 0c 3c a3 de 83 bc 7b 6a 22 bd b3 0f 17 bc
       0.008584782 -0.016097372 -0.03965233 -0.009220052
000270 99 b1 13 3d 18 5b 5f bd eb d1 00 3c bb 90 2f 3d
       0.036058042 -0.054530233 0.007862548 0.042862635
000280 07 78 02 3d c9 79 8d 3d 08 bc 15 bd 6e 70 74 3c
       0.03185275 0.06907994 -0.036556274 0.014919383
000290 c8 9b dc 3c 7c 4a 01 3d 69 e5 cf 3c b8 75 53 bc
       0.026929751 0.031565174 0.025377946 -0.012906484
0002a0 e1 a5 9a bc c8 ed 22 3d 26 57 c4 bc 9f 43 05 bd
       -0.018877925 0.039777547 -0.023967337 -0.03253519
0002b0 e9 03 07 3d 76 fe a2 3c 3b 7c b9 3c 4e c4 ff bc
       0.032962713 0.019896727 0.022642246 -0.031221535
0002c0 72 6d 72 bc bc 20 88 bb 36 55 55 bd fc 2a 02 be
       -0.014796602 -0.004154293 -0.052083217 -0.1271171
0002d0 63 a9 03 3d 21 38 de bc 0c 47 ea bc 2a ce 67 bd
       0.03214396 -0.027126374 -0.02859833 -0.056593098
0002e0 cf 3c 86 3c 98 19 a1 3c 76 89 09 bc 20 8e 43 3d
       0.016386418 0.019665524 -0.00839459 0.047742963
0002f0 0b ee 3d 3d 8e b7 f5 3c 77 a7 f6 bc 99 e6 8a 3c
       0.046369594 0.029994752 -0.03010915 0.01695566
000300 6d 83 82 3d b1 6a 97 3d 2a 8e 16 3d 10 0e 08 bb
       0.06372724 0.07393397 0.036756672 -0.0020760335
000310 ab 10 15 bd 4b b9 8c bc 2d fb 4e 3c d7 15 4b bd
       -0.03639285 -0.017178198 0.012633127 -0.049581375
000320 14 06 01 3d cd e4 92 3c 90 47 07 3d 96 42 ef bc
       0.031499937 0.017931366 0.03302723 -0.029206555
000330 97 b2 0a be ae c1 3d 3d 71 3a a4 3c 94 f4 de bc
       -0.13544689 0.046327285 0.020047398 -0.027216233
000340 3c 66 d2 3b c1 d6 c8 bc 89 7b 0e 3d 78 12 2f 3d
       0.0064208787 -0.024516465 0.03478578 0.042742223
000350 ce 4b 22 3d 8a ff b4 3b 68 d2 38 3c 8a e9 f5 bc
       0.039623074 0.0055236267 0.0112806335 -0.030018587
000360 11 82 8b 3d c8 dd 75 3d b5 a6 57 3d 18 3b 17 bc
       0.068119176 0.06002596 0.05264922 -0.009230398
000370 27 5c 54 3c 09 96 9b bd 2b 49 2c bd 66 7a e7 3b
       0.012961424 -0.07596976 -0.042061966 0.0070641516
000380 f8 de bd bc e7 ba 27 3d e0 82 2c 3d 4f df a7 b9
       -0.023177609 0.04094973 0.042117 -0.000320191
000390 72 b4 19 bc ea 59 23 bd 8b 69 99 bc 2e ab 87 bc
       -0.0093814 -0.03988067 -0.018727085 -0.016561117
0003a0 54 bf 25 3b d0 b6 73 3c 0b e8 f1 bc e3 cb 5d 3d
       0.0025291042 0.014875129 -0.029529592 0.05414952
0003b0 40 fd e2 3c dd a9 93 3c 29 64 f9 b9 02 36 a6 bb
       0.02770865 0.018025333 -0.00047567606 -0.005072356
0003c0 dd cd 2c bc 73 67 17 3d f4 95 0e 3d 09 57 86 3d
       -0.0105471285 0.03696389 0.034810975 0.065595694
0003d0 40 f8 01 3b 5d a7 13 bd d7 af 76 bd 56 31 88 bd
       0.0019831806 -0.036048282 -0.060226288 -0.06650035
0003e0 dd 4c 0c bd 4b 07 87 bd 50 db f8 3b 0c 62 3c bc
       -0.03425299 -0.06593188 0.0075945035 -0.011497986
0003f0 69 18 8c bc 8c 93 27 3c 20 84 8c 3c bc 1e 20 bd
       -0.017101483 0.010228049 0.017152846 -0.03909181

fc1.bias f4 [128]
000000 82 b9 d1 bc a5 c7 23 3c 35 34 9f bc 2c 22 cb 3b
       -0.025601152 0.009996329 -0.019434074 0.006199142
000010 99 ff 9c 39 a1 ee 17 3d d9 97 d6 3b e4 11 14 bd
       0.00029945074 0.03709281 0.0065488634 -0.036149874
000020 20 8d 37 3c 2a 37 27 3c f4 91 59 3c 7e b4 8a bb
       0.01120308 0.010206023 0.013279427 -0.004232942
000030 de 94 24 3d 45 bf 24 3c c5 0d da 3c d5 82 d3 bc
       0.040181033 0.010055368 0.026617894 -0.025819222
000040 3c 17 d7 bc 8a a6 b0 3c 27 71 67 3c 4e d4 74 bd
       -0.026256196 0.021563787 0.014126099 -0.059772782
000050 48 1f 34 3c 25 69 d3 3c 6b 51 9e 3b 7c 31 df bb
       0.010993786 0.025806973 0.004831483 -0.006811319
000060 ee 98 5d bb 57 8c e1 3c 19 6a 82 bc 38 5b dc bb
       -0.0033813077 0.02753274 -0.015919732 -0.0067247413
000070 af 21 17 3d 33 a4 96 3c 38 62 4f 3c 55 68 d3 3b
       0.036897358 0.018388843 0.0126576945 0.0064516463
000080 13 53 08 bd 7f ff 91 3c 59 6f e6 bc 8f 2e cf 3c
       -0.03328235 0.017822025 -0.028129267 0.025290756
000090 5d 33 f5 bc ff 17 69 3c 7d 5e ad 3b 34 23 40 bc
       -0.029931718 0.0142269125 0.005290805 -0.011727143
0000a0 04 04 46 3c 0c 9b 8d bc 8b 38 09 3d 24 4d c0 bc
       0.012085918 -0.017285846 0.03350119 -0.023474284
0000b0 0c d3 13 3c 75 00 8d 3c b1 57 0c 3b d9 b9 a1 bb
       0.009022485 0.017212132 0.0021414573 -0.004935485
0000c0 24 9b 2c bc 25 a7 d8 bc 68 ad 4b ba 71 ec 18 3b
       -0.010535035 -0.026446888 -0.0007769675 0.002333429
0000d0 39 ab 88 bc e5 04 11 bd e7 29 be bb a9 b3 26 bc
       -0.016683208 -0.03540506 -0.005803335 -0.01017467
0000e0 8f 68 c6 bb ea 20 88 bc bb 96 fd bc 46 53 c8 bc
       -0.006054945 -0.016617257 -0.030955663 -0.02445377
0000f0 43 0e c1 3c 52 bd c8 bb 1a 77 41 bc 1f 04 6e bc
       0.02356637 -0.0061260844 -0.011808181 -0.01452735
000100 9b 92 29 3c 25 f1 2b bd a7 1f a0 bc 43 7a 9a bb
       0.010349895 -0.04197802 -0.019546343 -0.0047142818
000110 5f ac ff bb 8e aa c8 3c 1c 34 1f 3c a2 00 65 bc
       -0.0078025307 0.02449539 0.009717014 -0.013977202
000120 ba 63 00 3d 76 2e 8b 3b 61 f4 70 3c e7 e5 8a 3b
       0.031345107 0.004247482 0.014706702 0.0042388323
000130 91 63 e7 3c d9 8d ea 3b 65 c3 79 bc a8 b3 f7 bc
       0.02824572 0.007158023 -0.01524434 -0.030237034
000140 9c 42 e0 3b 08 f6 9a b8 53 16 b0 3c fc c9 10 bb
       0.006843878 -7.389119e-05 0.02149502 -0.0022093048
000150 cf 0a 39 bb 73 f9 d5 3c ff b4 ed bc 30 00 2b bc
       -0.0028235202 0.026119923 -0.02901697 -0.010437056
000160 d6 3c 6b bc ed 0d c6 bc 10 ad 86 ba e4 be ea 3b
       -0.014357766 -0.024176562 -0.0010274965 0.007163869
000170 58 d0 12 3d 12 f1 87 bc 76 d3 e4 bc 2f 7f c4 bc
       0.035843223 -0.016594443 -0.027932864 -0.023986427
000180 1a 14 a2 3c 9a 61 be bc 72 fb b5 ba 7f 37 da 3b
       0.019784976 -0.0232399 -0.0013884141 0.0066594477
000190 1f c4 a6 3c 75 be c2 bc d8 d5 99 bc be ce b6 3c
       0.02035719 -0.023772458 -0.018778726 0.02231538
0001a0 a4 92 76 3c fc fb b9 3a e1 61 21 3c c5 b4 ed bb
       0.01504961 0.0014189477 0.009849996 -0.0072542154
0001b0 0a 8b d0 bc 1d a3 27 3c 1e 3a 1d 3d 34 11 c0 bc
       -0.025456924 0.01023176 0.038385503 -0.023445703
0001c0 8c 86 5a bc 52 bf 9b 3b 1e 03 0c 3c e0 d9 15 bc
       -0.013337743 0.004753032 0.008545665 -0.009146184
0001d0 1b 3a 1c 3d f7 45 9d bc e7 b7 99 bb 13 25 d6 3c
       0.03814135 -0.0191984 -0.0046911123 0.026140725
0001e0 bb ec 0d bb 3c df 4f bb 89 36 77 bc 2f 9b f9 bc
       -0.0021655995 -0.0031718751 -0.015088686 -0.030469505
0001f0 5a d0 09 3c cd 24 0b 3d 62 d2 d8 bc 3a 69 f5 bc
       0.008411491 0.033970643 -0.026467506 -0.029957402

fc2.weight f4 [10, 128]
000000 02 36 ea 3c 60 df 0a be 7d e5 aa 3c df c8 9c 3d
       0.028590206 -0.13561773 0.020861382 0.076555006
000010 a4 99 37 3d 5d 80 0b bd de 40 eb bc 4a f0 4f bd
       0.044824257 -0.034057964 -0.028717455 -0.050766267
000020 77 26 8a bd ae 74 77 bd a3 28 17 be 63 be 01 3d
       -0.06745618 -0.06041401 -0.14761595 0.031675708
000030 90 82 88 3d 15 8a ad 3d 6e a3 0e 3e c3 ac 83 bd
       0.06665528 0.08473603 0.13929531 -0.06429436
000040 65 f0 53 bd 71 34 a7 3d 19 46 e1 bc 7f 1c 7f bd
       -0.05174293 0.08164299 -0.027499245 -0.062283035
000050 58 c3 9b 3d a2 ad 9d 3d 0a bb c4 bd d0 34 9e bd
       0.07605618 0.076991335 -0.09605987 -0.07724917
000060 86 6d de bd ac a9 f4 3d bf 21 52 3d 26 80 11 3d
       -0.10860734 0.11946425 0.051301714 0.035522602
000070 20 51 9f 3d 94 ad 0e bc cf ef 1b 3d 35 35 80 3d
       0.07779145 -0.008708376 0.038070496 0.062601484
000080 34 bd 0c 3d e9 4b 21 be 3b 12 0d bd 68 43 ae 3d
       0.034360126 -0.15751614 -0.034441214 0.085089505
000090 f9 af 02 bd 77 75 c7 bd c8 e5 24 bd 4a db 2e 3d
       -0.0319061 -0.097392015 -0.0402582 0.0426896
0000a0 a1 7a 90 3c 0d b9 5e be e5 c6 42 bd b4 2d c1 bd
       0.017636599 -0.21750279 -0.04755296 -0.09432545
0000b0 9c 07 38 ba 44 e1 15 be 04 bb 76 b7 07 81 9f bd
       -0.0007020177 -0.14636713 -1.4706286e-05 -0.07788282
0000c0 5f ee 82 bd 08 36 ba 3d 9a a4 c3 3d e0 8a d8 bc
       -0.06393122 0.09092337 0.0955288 -0.026433408
0000d0 7f 95 32 3d 0f 8e 13 be 53 49 5b bc c2 f0 6b 3b
       0.0435996 -0.1440966 -0.013384181 0.0036001657
0000e0 ed 88 25 bd d4 cb 68 3d b5 78 40 bd 31 6d bb 3d
       -0.040413786 0.05683501 -0.046990115 0.09151686
0000f0 dc 88 99 3d 03 29 de 3d da f1 05 be 84 fb 0b be
       0.07496807 0.10847666 -0.1308054 -0.13670164
000100 89 47 c4 3d e9 0d 98 bd 3d d1 1f be 9a 0e 3e 3d
       0.09583957 -0.07424528 -0.15607162 0.046400644
000110 64 d4 6f 3d b7 12 80 bd a8 ab fb 3d 6f a3 93 bd
       0.05855216 -0.062535696 0.122886 -0.07208907
000120 bd 00 ee 3d 04 5b 01 bd f1 a1 6c 3d 3b 68 4d 3d
       0.116212346 -0.03158094 0.057771627 0.05014823
000130 d3 f0 d2 3d 79 a4 3e 3d 18 c9 a9 bd 19 db b7 3a
       0.1029984 0.046543572 -0.08290309 0.0014027088
000140 51 55 e0 bc 88 b5 e8 3b 24 20 4c bd 77 57 61 bd
       -0.027384432 0.0071017183 -0.04983534 -0.055015054
000150 12 83 e5 b9 00 bf 04 bd 0c 6e 52 3d 7f 6f 1f be
       -0.0004377594 -0.032408714 0.05137448 -0.15569876
000160 50 90 ae bb 95 8d a3 3b 81 b7 08 be ed 35 e7 bd
       -0.005327262 0.004991243 -0.13351251 -0.112895824
000170 e8 e7 b6 3d 85 7b 55 bd ae 51 81 be cd b2 6c be
       0.08930951 -0.05211975 -0.2525763 -0.23115082
000180 7d 85 f8 bc 14 17 a6 bc 82 6c 5b 3c 5c d3 ca 3d
       -0.03033709 -0.020274676 0.0133925695 0.09903595
000190 5b 4e d4 bb dd be 14 bd d7 bc 94 3d 44 bc 58 3d
       -0.0064790673 -0.036314834 0.07262581 0.05291392
0001a0 0d ad dd 3d ea 89 9e bd 51 a7 a7 3d 0d 45 5b bd
       0.108240224 -0.07741149 0.0818621 -0.05353265
0001b0 b1 cb 63 bd 4a 20 8c 3b 1b 0c fa 3d af 7f 94 3d
       -0.055614177 0.00427631 0.1220934 0.07250916
0001c0 1c 89 13 3d fc e3 1b bd 6c 04 2c 3c 7d 86 9c 3d
       0.03601943 -0.03805922 0.010499101 0.07642839
0001d0 f8 f6 dc bd 26 0f 08 3d f5 b3 38 be bb 28 a2 3d
       -0.10789293 0.03321757 -0.18037398 0.07917925
0001e0 d5 8c 7d 3d 5b 73 b3 3c bb 67 6d 3a 2d 71 0b be
       0.061901886 0.021905592 0.00090562896 -0.13617392
0001f0 ca 49 f3 bd bf 60 af bd 16 8e fe 3c 6e d3 3d 3d
       -0.118793085 -0.08563375 0.031073611 0.046344213
000200 0f d2 c4 3d cd 7e 83 bd 7f 0f 27 3c 77 8d 3b be
       0.09610378 -0.0642067 0.010196566 -0.18315683
000210 b6 67 1c bd fe 58 6d 3d f2 ad 3c bc c0 09 95 bd
       -0.038184844 0.057946198 -0.011516081 -0.0727725
000220 ec 78 4e be 3c e3 69 bd 0c f6 28 3a c4 3e 48 bd
       -0.20163316 -0.057101473 0.0006445355 -0.048887983
000230 03 8d 55 ba ed 65 dc bd a9 e3 e9 3c fa 14 46 be
       -0.00081463176 -0.10761628 0.02855094 -0.1934394
000240 f4 33 1b bd ab f4 a3 3d 39 51 45 bd 8b 80 94 3a
       -0.037891343 0.08005651 -0.048173163 0.0011329813
000250 86 d1 36 3c f7 60 87 bd d5 16 19 be be 2d 99 3c
       0.011158353 -0.066102915 -0.14950116 0.01869857
000260 c8 3a a7 3d 2f db 6b 3d 38 8d 0c bc 5f 2a 3d be
       0.081655085 0.057582077 -0.008578591 -0.18473195
000270 0e 63 2a 3e d0 4c 09 3d a2 23 32 bc 7f 15 07 be
       0.16639349 0.03352052 -0.010872753 -0.13191794
000280 0e 24 3d bd 4c ec b4 3d 6d 49 a6 bc 62 77 0d 3e
       -0.046176963 0.088341326 -0.020298684 0.13815072
000290 69 1f 9a 3d 6e 63 a2 3d e7 a9 88 bc 48 f1 1a be
       0.07525522 0.07929121 -0.016682578 -0.15131104
0002a0 fd 74 2b be e4 4d 5a bd 9d 32 8f 3d c0 41 83 bb
       -0.16743846 -0.05329694 0.069920756 -0.0040056407
0002b0 f0 78 64 3d ca 61 ae 3d 25 c1 dd bc 89 d4 aa 3d
       0.055779397 0.085147455 -0.027069638 0.08341319
0002c0 98 c7 e6 3d 9f 36 6e bd ae a7 a4 bd 4a fd 2b be
       0.11268538 -0.05815756 -0.08039795 -0.16795841
0002d0 0c 1b 18 bd 81 18 12 be 82 36 4a be 3f bd c9 3d
       -0.03713517 -0.1426716 -0.19747356 0.09850549
0002e0 24 a5 73 3d 19 de 0c be 18 81 93 bd 26 f3 ef bc
       0.059483662 -0.13756599 -0.07202357 -0.029290747
0002f0 05 c3 8e 3d 77 59 4d be db f4 0b be de bf db 3a
       0.06970791 -0.2005366 -0.13667624 0.0016765555
000300 58 68 d6 bd f7 36 4a bd f4 7f 6c 3d 44 6b eb 3d
       -0.10469121 -0.049368825 0.057739213 0.11495069
000310 a2 97 1f be 88 03 cd 3d ae 0f a3 bc c9 4b a5 bc
       -0.15585187 0.10010439 -0.019904938 -0.020177739
000320 16 23 ad 3d 46 fe 99 bd 28 57 4d bd 92 80 47 3d
       0.08453958 -0.07519202 -0.050131947 0.0487066
000330 2f 89 c5 bc b5 1d 2d be 9e 12 85 bd 5f 7f 0e be
       -0.024113266 -0.16905864 -0.064976916 -0.13915776
000340 ba 5f bb bc eb c1 c0 3c a6 d6 2f 3d 6c e5 6c bd
       -0.022872794 0.023529967 0.042929314 -0.05783598
000350 20 87 91 3d 8b cb 88 3d 9f b8 4b bd de d8 a3 3d
       0.07105851 0.06679448 -0.049736615 0.080003485
000360 89 ed da bd 88 97 4c 3b e1 4d ef bd 8a cd de 3d
       -0.106898375 0.003121825 -0.11684776 0.10879047
000370 e5 99 04 be 7e 79 3d 3d 5e a3 82 3d 8b 8c 99 3d
       -0.12949331 0.046258442 0.06378816 0.074975096
000380 0c 88 55 be b0 55 fa 3d 52 4e 1e be 75 ad 19 3d
       -0.20852679 0.12223375 -0.15459564 0.037518937
000390 5e 94 3c 3d 82 38 67 bd 53 bc da 3c 36 67 1a 3d
       0.04603993 -0.056450374 0.026701128 0.037696086
0003a0 e3 dc 99 3d 9d dc 24 be cc ae 90 3d 50 f0 9e 3c
       0.07512834 -0.16099782 0.0706459 0.0194017
0003b0 66 77 a0 3d c4 75 70 3d d7 ee 18 3e 23 38 64 3d
       0.078352734 0.05870606 0.1493486 0.0557176
0003c0 ec 21 26 bd 57 a8 64 3d fe b1 20 3d 7d 2f 10 be
       -0.040559694 0.055824604 0.039232247 -0.14080615
0003d0 69 ad de 3d 12 d6 4f 3d be 5b 50 3d 3e 0e e1 bc
       0.10872919 0.050741263 0.050868742 -0.027472612
0003e0 04 1d 73 bb 51 3b 25 be 6b 4b c1 bc 2f 6e 99 3b
       -0.0037096152 -0.16135909 -0.023595532 0.0046823244
0003f0 6a d2 dd 3d ca 6f f3 3d e8 9d 0f ba f8 14 12 3d
       0.10831149 0.118865564 -0.0005478547 0.03566453

fc2.bias f4 [10]
000000 b9 b9 2a bc ca 42 32 bd b0 5f 1d 3d 5c 21 5d bc
       -0.010420256 -0.043520726 0.038421333 -0.013496723
000010 49 56 60 bc 86 11 7c 3d 18 5a c2 bc 0e 54 18 3d
       -0.013692447 0.06154015 -0.0237246 0.037189536
000020 9a 32 bd bb 15 66 e3 bd
       -0.0057738544 -0.11103455
