frontend/models/shapes_cnn.pt (torch, 375351 bytes, 8 tensors)

conv1.weight f4 [32, 1, 3, 3]
00000000: d952 293e 98c4 943e 21af 1cbe aefe 023c
00000010: 49ea 6c3d a719 20be 518f a63e 6672 7a3e
00000020: 72d6 9e3d 426e 633e 1bcb 98be b1d7 a13d
00000030: 557c b5bd 07ac 5e3c c45a 3d3b 4e91 42be
00000040: 0ac2 973e f85b e93d 5826 603e bc20 81be
00000050: 8bfe 3f3d 3796 34be 2541 b7bd ff0e 413e
00000060: b845 5dbe 6979 6dbe 4bd4 78be 923b 93be
00000070: 13ef af3e 0eb9 bc3e b3ee 9cbe 2678 d2bd
00000080: caa3 883e 6aa5 15bd 023d 99be 97a0 88be
00000090: 8ad7 9fbd 2c3e 823d 78f3 bd3e acf2 a6be
000000a0: 2986 463e e5e2 dc3d 538e 25be 6432 ee3d
000000b0: de03 0f3e 233d a53d 8676 0bbc 7e52 85be
000000c0: 9244 a53b 2663 ebbd ea64 553e 423c 733e
000000d0: 09d9 aebd 49d6 23be d28b 9dbe 782b 2fbe
000000e0: 3356 5f3d 22b2 a8bd badb 0abe ffbc aabe
000000f0: 7afd c13e fe93 443e dd10 ab3e 03cc 95be
00000100: e33e 9f3e 4ea5 a2be 819f c23b 76e5 883d
00000110: b94e 7c3e b4c8 c8bd af26 2e3e 2692 c03e
00000120: 0a99 a43e af2d ecbc 7738 a93e e05d efbd
00000130: f8ce 4e3e 09b0 98bd bb75 a43c 5aa6 1cbe
00000140: 4fbf 64be 6423 9ebe 1a7f 65be 4910 e93e
00000150: f5f9 11be 1c6f d1be e44a 5cbd 95f2 d43d
00000160: a79b 8abe c6e5 c73d 1a1b aabe 9fd8 dc3d
00000170: bfb1 4d3e e75d b2bd f0c0 8e3e ea6e 8fbe
00000180: a4fd f7bd b680 a5be cb2c 7b3e 9e87 213c
00000190: b640 2bbe 9145 6cbe 7d99 1ebe 7117 fabd
000001a0: 8ed4 a8be b620 46be 93d9 b2be 6695 e2be
000001b0: a9fc 8a3d 2717 853e 81e6 513e c9bb b73e
000001c0: 8451 a23e a6bd 78bc 7f5e 4e3e 2d7d 73be
000001d0: 7dce 6e3e aa23 5f3e 4f96 fb3d 5d7d be3e
000001e0: fd8a 133e 1a5f 493d 120c 123e 9041 21be
000001f0: cace a2be efab 173e fe46 803d 6f82 e2bd
00000200: 332e 553d 06c6 a8be a4f4 893e df72 713d
00000210: 8559 70be a876 95be f268 a83e 6b2e 9a3e
00000220: add2 91be e155 57be cb4f c73d a713 d33d
00000230: d3d8 4fbe 81fd b33d 4311 b3be f9e6 9b3e
00000240: 03ac 453d 3283 89be a1a0 36bd 2445 c63e
00000250: 5f78 9e3e 9da2 6a3e c26c 423e d267 31be
00000260: f620 853e ffc2 943e 4983 493e 49dd 2f3e
00000270: 477b b13d 8ea6 443e 6620 9c3e c11f 6abc
00000280: c235 963e 94f0 09bd 2df7 8cbe 066a 00bd
00000290: e41e 843e 1619 2cbd 348f a03e 19ef 933d
000002a0: e556 d43d 1d82 8a3e 4375 90be aef8 cf3d
000002b0: 2672 07bd 5e3b 933e 05c9 08bd a0e1 57be
000002c0: 50ce a43e 30f3 e23c 58c0 81be e95e b63e
000002d0: 7391 a8be b0ae 1abe f5e1 883e cd1b 8cbe
000002e0: 7f34 babe eab5 2c3e b4af 73be 5a5c 88bb
000002f0: 9d08 413e 69c9 6ebe 2eee 9f3e a8bf 33be
00000300: 911c 8ebe 6d62 b73e 6c8b ee3d 4249 673d
00000310: cdbd ba3e 3233 7b3e 5017 82be 7de0 883e
00000320: fc5d aa3c 9894 35be da95 b43e 04f0 943e
00000330: b3cf b73e 6a9a 813e 30b4 b33e 3669 65be
00000340: e052 1ebc e2ab 5b3e eb1f 8cbe e21a 033e
00000350: 033d 56be 6fec a0be 4377 a9be e86c 52bd
00000360: fbcd 443e dab8 a23e c486 87be 9818 313e
00000370: 3bd1 9b3e f167 d73d f35c ce3e 78cb 8c3e
00000380: bb9d 583e b433 803e dde1 a43e c3a2 ad3e
00000390: f19c 76bb 62f2 8a3e 7c7f 243e 1d65 a3be
000003a0: e63d 1abc 2643 a33e 0338 e43d a093 843e
000003b0: fc00 4b3e 3d2c 89be 8561 1f3e 120a cebd
000003c0: a957 20bd 6b91 383e 7bae a6be fab0 6bbe
000003d0: e7b4 4ebe c651 bebd f3b5 3bbe 06a3 dfbe
000003e0: 7d56 633d 421b 77be 7380 b5be 8327 ac3e
000003f0: 5419 31be c580 db3e 39b4 733e 5d33 bdbe
0.1653551 0.2905624 -0.15301181 0.007995291 0.05784062 -0.15634786 0.32531217 0.24457702
0.07755746 0.22210029 -0.29842457 0.07902468 -0.08861605 0.013590819 0.0028893212 -0.19000742
0.29640228 0.11394495 0.21889627 -0.25220287 0.04687361 -0.17635427 -0.08947972 0.18853377
-0.21608627 -0.23190846 -0.24299733 -0.28756386 0.34362087 0.36859936 -0.30650863 -0.10276823
0.2668746 -0.036534704 -0.29929358 -0.2668502 -0.07804783 0.063595146 0.37099814 -0.3260702
0.19387116 0.10785464 -0.16167574 0.11630705 0.13966319 0.080683015 -0.008512145 -0.260395
0.0050435746 -0.114935204 0.20839277 0.23753455 -0.0853749 -0.15999712 -0.30770737 -0.17106426
0.054525565 -0.08237101 -0.13560382 -0.33347318 0.378887 0.1919708 0.33411303 -0.2925721
0.31102666 -0.31766742 0.0059394245 0.06684391 0.24639405 -0.09803906 0.17006944 0.37611502
0.3214801 -0.028830377 0.33050892 -0.11687827 0.2019614 -0.07455451 0.02007567 -0.15297833
-0.22338603 -0.30886376 -0.22411767 0.45520237 -0.14255507 -0.40905082 -0.05378236 0.10397831
-0.27071878 0.09760623 -0.33223802 0.10783505 0.20087336 -0.08709317 0.27881575 -0.28014308
-0.12108925 -0.3232476 0.24528806 0.009858994 -0.16723904 -0.23073412 -0.15488239 -0.12211502
-0.32974666 -0.19348416 -0.3493162 -0.44254607 0.06786472 0.25994226 0.20498087 0.35885456
0.31702816 -0.015181934 0.20153235 -0.2377822 0.23320957 0.21790949 0.122845285 0.3720502
0.14408489 0.04916296 0.14262417 -0.15747666 -0.31798393 0.14811681 0.06263541 -0.110600345
0.052046012 -0.3296358 0.26944458 0.05894744 -0.23471649 -0.2919209 0.32892567 0.3011354
-0.28481045 -0.21028854 0.09732016 0.10306483 -0.20297556 0.087885864 -0.34974107 0.30449656
0.048259746 -0.26857907 -0.04458678 0.38724625 0.3095121 0.22913595 0.189868 -0.1732476
0.2600171 0.2905502 0.19678988 0.17174257 0.086660914 0.1920416 0.30493468 -0.014289797
0.2933789 -0.0336767 -0.2753233 -0.03135111 0.25804818 -0.04201611 0.31359255 0.07223339
0.10368136 0.27052394 -0.28214464 0.10154854 -0.033067845 0.2875623 -0.033394832 -0.21082163
0.32188654 0.027703851 -0.2534206 0.35619286 -0.3292347 -0.151057 0.26734892 -0.2736496
-0.36368176 0.1686627 -0.23797494 -0.0041614 0.18850942 -0.2331902 0.31236404 -0.1755358
-0.2775617 0.3581728 0.11647686 0.05646635 0.36472932 0.24531248 -0.2540841 0.2673377
0.020796768 -0.17732465 0.35270578 0.29089367 0.3590065 0.2531312 0.3509841 -0.22403416
-0.009663314 0.21452287 -0.273681 0.12803224 -0.20921712 -0.31430385 -0.33098802 -0.051373392
0.192192 0.31781656 -0.26470006 0.17294538 0.30433068 0.10517872 0.4030529 0.27498984
0.2115392 0.25039446 0.3220357 0.3391324 -0.0037630165 0.27138048 0.16064256 -0.3191308
-0.009414172 0.31887168 0.11143496 0.2589388 0.19824594 -0.26791564 0.15564544 -0.100605145
-0.0391461 0.18024223 -0.32554993 -0.2301673 -0.20186196 -0.09292941 -0.18331127 -0.43679065
0.055502404 -0.24131492 -0.3544956 0.33623895 -0.17294818 0.4287168 0.23799218 -0.3695325

conv1.bias f4 [32]
00000000: 5224 8e3d 1f73 1abe 687e 813d e479 8bbe
00000010: 53bb c93c 079a c63d 9c10 923d e258 2bbd
00000020: f5a7 7bbe a2af 7e3e 4ef3 9e3e d324 783e
00000030: 01ab 86be 1c1c 56ba aafc 743e 0fff 1c3e
00000040: 0835 cabd 1156 5fbd 931e 4bbe 4a12 6c3e
00000050: d0d1 9a3e df6a 95bc 2378 253d d880 5ebe
00000060: c91e 42bb 6528 913e bc09 023e 39a2 9e3e
00000070: 884f 963e fdb6 92be 97aa 81be 2818 1abe
0.06940521 -0.15082978 0.06322938 -0.27241433 0.024625456 0.09697347 0.07132074 -0.041832812
-0.2457579 0.24871686 0.31045002 0.24232797 -0.2630234 -0.0008167641 0.23924509 0.15331672
-0.09873396 -0.05452544 -0.19835882 0.23053852 0.302382 -0.018239437 0.040397774 -0.21728837
-0.00296204 0.2835113 0.12699026 0.3098314 0.29357553 -0.28655234 -0.25325462 -0.15048277

conv2.weight f4 [64, 32, 3, 3]
00000000: e1a1 933c 8111 2cbd 04e8 3f3c 92c1 19bd
00000010: 5b6c 7cbc 752b cf3c 468f 583d 3c65 89bc
00000020: 157b 3d3d 8d55 e63d a750 583e 69ef 213e
00000030: 5e40 613e c528 3d3e 954e 763b 636b c43d
00000040: da3c 143e f4cc a13d 7e3c 91bd e8cd 3c3d
00000050: 8749 a73d 6ca4 e6bd 0c6d 14bd ee45 d03d
00000060: 6ffb 203d b900 f23d 4995 f53d badc e93c
00000070: a7ab 1f3e 2d06 fd3d 2bc0 4cbe 70ac 39be
00000080: 72b4 2c3e 6e6a 553d c542 93bd 84a7 c73c
00000090: b893 43bd 5d80 de3d 98e5 f13d c279 e13c
000000a0: 20cf 3c3d c539 5d3d 13ba b4bc 7652 9abd
000000b0: 3f94 e5bd d1a5 d13b 2847 69bd ed8f d0bc
000000c0: 59a4 e63c 24d6 d73c 4542 6abc 8211 0dbd
000000d0: 3897 263d 894c 9a3d d4c8 afbc bd7e 9c3d
000000e0: ae19 1e3b 7c16 923d e056 3b3d 2287 04bd
000000f0: df92 2fbc fcf9 0b3d 9a10 b83c 5076 bfbd
00000100: c63e e5bb f9fc 993d 63c3 c53d fe8d 65bc
00000110: 52c0 57bd 6d2f 8f3d ce38 0d3d 168b 08be
00000120: d211 49bd 6897 223d 68f6 903d 2d1e 0ebc
00000130: 390f 933d a048 063e 690f 8e3d bd8c 763d
00000140: 615c 5fbd 0dba da3d d2ab 6e3c cfc2 92bd
00000150: 453e 2cba 5121 c0bc a3b6 733d 2b0e 833c
00000160: fd11 04bd 5473 cf3d c918 0dbc 3a25 993d
00000170: 1087 733c 0302 68bc a986 85bc 6e0d 2d3d
00000180: 760c 053d 12f6 0a3d e4d6 503d d2ab 00bc
00000190: 863d 443d 6b2c ffbd 7419 03bd 875e 5cbd
000001a0: 9108 0f3d 7712 6fbc 262a 143c e95c 7c3d
000001b0: 7b9f 92bd 5b42 92bd 5e72 4a3d 26e1 23bd
000001c0: a67e bdbb efd2 4bbd b86e 27bd 665f 34bc
000001d0: 3a9e b2bd 5eff 4bbd f7ad 043d 815c 7a3c
000001e0: 5c52 83bd a537 b73c 3561 c33d 6616 bb3c
000001f0: 105f 253d 4e12 3fbd cb63 17bd 9055 3d3d
00000200: dfd2 213d 9f32 e3bc f520 fcbc d9c8 1f3c
00000210: a6bd 2b3d 8e01 10bd 3f9a 8fbd 2477 aa3b
00000220: 3011 853b 4ea5 3dbd a86e 453d b077 41bd
00000230: 5863 1abd 38fa 1dbc f231 963d 19de 423d
00000240: ccc3 bd3c 3599 54bd 6097 c83d bd97 613d
00000250: d2a9 1a3d 9f2a dfbd 7eb9 293d 6067 3abd
00000260: bb6a ebbb d1c1 07bd 2090 9fbb 3455 d83d
00000270: 87f2 b6bc bbeb 9eba a62f 17bd 308c 3d3d
00000280: 92da 2dbd 3c40 85bd 233f 7cbd 824e 3b3d
00000290: 2e8b d03d 842e af3d afb9 a63d 674d b4bc
000002a0: 8e86 c83b 6998 c2bc f4d8 ecbc 7641 92bd
000002b0: 021c 0c3d 4a9a 0d3d b157 923c 4a89 4abc
000002c0: 1d09 a7bc a443 4cbc 0a10 3cbd b049 c1bc
000002d0: be61 94bb 25c4 fb3c 345f 6dbd df37 8dbd
000002e0: 0b35 153d 746f 093d edf7 cfbc b813 1fbd
000002f0: ebd3 08bd 9804 2bbd e807 eb3c 1bfe aa3d
00000300: fc45 953d b836 1ebd 8979 e7bd 3e30 39bb
00000310: e6aa 4bbd 17e1 0dbc 14dc 04bd 0ba5 523d
00000320: 7536 903c 3da1 963d 27c6 35bd f266 77bd
00000330: daa6 0e3d 223f 52bc f03b b93c ed3f 513d
00000340: c61e 15bd c75a 153d 946d 6c3c ac6b 5cbd
00000350: 1e4f cebc 7081 29bc 7856 ca3b 8194 383d
00000360: ebf7 08bd 8ae8 acbc c0d5 0b3d 2bdc 133d
00000370: e5ac 6d3d 361c 72bc 92dd 523d 87a2 593d
00000380: de7e ca3c 05ee 97bd cfde bbbc 6e8c d83c
00000390: 74ad b2bb 21ac 57bd c998 173c b57d 533d
000003a0: 918a 6fb9 a998 5fbd b5ac 14bd bc83 223d
000003b0: f38b c73c 21a1 f9bc 7403 adbc 7b10 f53c
000003c0: d958 44bd 9367 e63c d734 eabc 3637 023d
000003d0: a432 5839 8087 dcbd c23d 0a3d cb48 9dbd
000003e0: ba32 32bd ded0 413c 4b7a d2bc 8fd7 0c3d
000003f0: db7b 2f3d 6911 ad3c ab77 97bb 8104 d3bd
0.018021526 -0.04200888 0.011713032 -0.03753812 -0.015406693 0.025289277 0.05287101 -0.016771905
0.04625996 0.11246786 0.21124516 0.15813984 0.2199721 0.18472584 0.003758346 0.09590795
0.14476338 0.0790042 -0.07091616 0.046094805 0.08168321 -0.1126183 -0.036236808 0.10169588
0.039302286 0.11816544 0.119913645 0.028547633 0.15592824 0.123546936 -0.19995181 -0.18132186
0.1686571 0.052103452 -0.0719047 0.02437187 -0.047748297 0.10864327 0.1181137 0.027523879
0.046095967 0.05401017 -0.022061383 -0.075352594 -0.11209916 0.0063979407 -0.056952626 -0.025459254
0.028154539 0.026347227 -0.014298026 -0.034440525 0.040671557 0.07534129 -0.021458067 0.07641361
0.0024124193 0.07133195 0.045737147 -0.032355435 -0.010716169 0.03417395 0.022468854 -0.09348738
-0.0069960086 0.07518954 0.09656408 -0.014010904 -0.052673645 0.069914676 0.034478 -0.13334307
-0.04908926 0.039695174 0.07078248 -0.008674187 0.07180638 0.13113642 0.06936533 0.060192812
-0.05453146 0.106800176 0.014567332 -0.07166063 -0.0006570558 -0.023453387 0.059500348 0.015997967
-0.032243717 0.10129419 -0.008611866 0.074778035 0.014863744 -0.014160636 -0.016299563 0.042249136
0.032482587 0.033926077 0.050986186 -0.007853465 0.047910236 -0.12459644 -0.032006696 -0.053801086
0.03492028 -0.014591805 0.009043252 0.061612044 -0.07159325 -0.071415626 0.049425475 -0.04000964
-0.00578292 -0.04976171 -0.040877074 -0.011009073 -0.087215856 -0.049804084 0.03239247 0.015280844
-0.06412193 0.0223654 0.09540025 0.022837829 0.04037386 -0.046648316 -0.036960404 0.046224177
0.039507743 -0.027734099 -0.030777434 0.009752476 0.04192891 -0.035157733 -0.07011842 0.005202191
0.004060887 -0.046300225 0.048201233 -0.047233284 -0.037692398 -0.009642176 0.07333745 0.04757509
0.023164652 -0.051903922 0.097944975 0.05507635 0.03775961 -0.10896801 0.041436665 -0.045508742
-0.007184354 -0.033143822 -0.004869476 0.10563126 -0.022332443 -0.0012124697 -0.036910675 0.04627627
-0.042444773 -0.06506392 -0.06158365 0.045729168 0.101827964 0.08553794 0.08140885 -0.022009565
0.006119556 -0.023754315 -0.028912045 -0.07141392 0.034206398 0.03457097 0.01786408 -0.012361834
-0.020390088 -0.012467299 -0.045913734 -0.023594707 -0.0045282533 0.030733177 -0.05795212 -0.06895422
0.03642754 0.033553556 -0.025386775 -0.038837165 -0.033405226 -0.041752428 0.028690293 0.08349248
0.07288739 -0.038626403 -0.11302478 -0.0028257514 -0.04972353 -0.008659623 -0.032436445 0.05142693
0.017604092 0.073549725 -0.044378426 -0.06040091 0.03482709 -0.012832435 0.022611588 0.051086355
-0.0364063 0.036463525 0.014430422 -0.05381362 -0.02518421 -0.010345802 0.0061748587 0.0450635
-0.033439558 -0.021106977 0.034139395 0.03609864 0.058026213 -0.014777234 0.051480837 0.053133514
0.024718698 -0.074184455 -0.022933392 0.02643415 -0.005452806 -0.05265439 0.009252735 0.051633555
-0.00022844436 -0.054588947 -0.03629752 0.039676413 0.024358725 -0.03047234 -0.02111981 0.029915085
-0.047936294 0.02812556 -0.02858965 0.031790935 0.0002061823 -0.10768032 0.033750303 -0.076799
-0.043505408 0.011829583 -0.02569308 0.03438526 0.042842727 0.021126466 -0.00462242 -0.103035934

conv2.bias f4 [64]
00000000: cb8a 0dbd 55aa cc3c 819f a4b9 f1d9 e83c
00000010: 6eb5 3fbd 8025 09bd a18e 58bd e182 fcbb
00000020: 2b48 20bd 217b 033d 7ab4 283d bcc9 87bd
00000030: 6c68 d73c 17e7 d9bc 7278 13b8 03db 0fbd
00000040: b8bf 6bbd 9195 7ebd 9530 32bc 4277 ddbc
00000050: 040c 21bd 72c3 5a3d e345 93bd 6eaa 823b
00000060: 7cb4 383d cc8d 67bc b7ee bcbc 9834 2c3c
00000070: 4cb6 0ebc 9bb3 d73c c9a4 23bc 7a5c 583d
00000080: def1 47bd b883 283d 529d b03c 80ca 18bd
00000090: 163c 02bd f3bd 0e3d 7f5a 1abd 9fc5 853c
000000a0: 4ba2 ca3c 2a58 e93b f56d 1cbd 9602 023b
000000b0: 85a0 f83c b54c 09bd 11c5 3ebb 29b2 a33c
000000c0: 5444 123d 0077 363d c946 503c abc3 0d3d
000000d0: 1a46 3dbd 4d65 093d 4400 273c 826d 8bbd
000000e0: eafc 89bd 45d5 24bd a734 91bb b2a2 613c
000000f0: 4a21 f6bc 5445 20bd 1465 55bd 38e6 27bd
-0.03455619 0.024983564 -0.00031399357 0.028424235 -0.046803884 -0.03348303 -0.052870397 -0.0077060317
-0.039131325 0.032099847 0.04118774 -0.06630275 0.02629491 -0.02659945 -3.5159705e-05 -0.035120975
-0.057555884 -0.062154356 -0.010875841 -0.027034406 -0.0393181 0.053409047 -0.07191064 0.003987602
0.045094 -0.014132928 -0.023063047 0.010510586 -0.008710455 0.02633076 -0.009988018 0.052822568
-0.048814647 0.04114124 0.021559391 -0.037302494 -0.031795584 0.03484912 -0.03768396 0.016329585
0.02473559 0.0071211057 -0.0381908 0.0019837967 0.03034998 -0.03352042 -0.002910916 0.019982414
0.035709694 0.04454708 0.012712189 0.03461043 -0.046209432 0.033543874 0.010192934 -0.06807996
-0.06737693 -0.040242452 -0.0044313255 0.0137717 -0.03004517 -0.039128616 -0.05209835 -0.040991038

conv3.weight f4 [128, 64, 3, 3]
00000000: 87ec b3bd ff65 0bbe 70cc 0ebe a2b9 debd
00000010: 6410 b3bd f810 1bbe ab38 f2bd 3622 09be
00000020: 043c ffbd b3a9 8eba 95fc 233d 1dbe bdbc
00000030: 6714 12bd a4f2 fe3c 6921 053c 63eb 7ebc
00000040: 29f9 cdbc dc9a 063b 52a7 803c b23e ad3c
00000050: ec95 3fbb 02fd 443d 1991 583d 441d 233d
00000060: a72b 573d 38ff 2bbb ef1a de3c f686 2f3b
00000070: 0f27 0b3d b6be 583d 4ce5 ac3c 4f37 a4bc
00000080: 3e61 913c 2d84 043c b94f 403d 2fd6 1a3d
00000090: f651 ac3c 860b 983b bc3f dc3c 2321 b7bb
000000a0: 59c1 c2bc ce10 e7bc e861 763a 6af7 bdbc
000000b0: 0415 333a 8bbe 07bd 6bcc 1f3d f1c2 92bc
000000c0: 915b 04bd 8823 233d a81b 0ebd f422 19bd
000000d0: 3144 a93b fcc5 fd3c aa82 503d 2cce cf3c
000000e0: 407e b03d 4f07 4b3d f48a fd3c 8901 a73d
000000f0: 7e55 d33c 7d3d 5f3d 8e88 5b3d c9e3 353e
00000100: 671d ea3d ee4a 363e b219 3e3e c96e 3c3e
00000110: a6c6 063e 63c4 253e 4448 043e 7aa9 093e
00000120: 149b 023d 2308 df3c f171 453c ac22 613c
00000130: 1a64 3cbd 8f00 f0b7 1b9b ad3c 7d4e 11bd
00000140: a858 d0b9 13a2 993d b98d c53d ed4c 6a3d
00000150: 1693 c63d 71f4 8d3d 2837 c03d 0e04 913d
00000160: 18cd 6e3d 89e7 9d3d 2d9c 963c 569b fc3c
00000170: 110d c03b 8fbf 76bc 448f 39bd 5a01 9ebc
00000180: e7a7 0e3d 7a74 21bd 3abd 36bc db9b 9c3c
00000190: 62cc 17bd 019f 483c fc95 fabc c4cc 2b3c
000001a0: d9a6 28bd 937f 153c 7cc9 d7bb 94ec a43b
000001b0: eac9 49bd a697 16b8 9101 25bb 2211 8fbd
000001c0: 9f7c 56bd f215 97bd 4b51 c0bc 6ebe eabc
000001d0: d9aa aebb 2d97 80bc 1378 123d 4d36 43bc
000001e0: bf68 1c3d a9cf 693c 3e8c 183d f33d 6a3d
000001f0: 6c24 56bc 9a75 0f3d 782a e93c 49a0 b83c
00000200: b941 d4bc 9aa1 ad3c 4bc0 d43c d7cf 99bc
00000210: efd8 403d 284f 533d 1e8b 94bb 9667 4a3d
00000220: 147c 843d 04ad bb3c b9d7 593d 2df6 b33c
00000230: 8598 6fbb 2104 83ba 15ce 083c f379 2d3c
00000240: 0678 d93c 24e9 15bd bcb1 6bbb 9c10 853c
00000250: ba68 ccbb 62fd 11bd 896e 053c 8a2d 053d
00000260: 490e 2fbc c15b 0cbc 1295 2d3d 902c 4c3d
00000270: 3141 bb3c cf97 d33c fe52 803c 0328 9f3b
00000280: e62d b1bc 24d1 5c3b c709 4a3d e7c8 473d
00000290: 1563 b73d 7b11 023e 7a30 bd3d 6fe3 003e
000002a0: 3db4 d63d ee98 cd3d f202 973d d589 fcbd
000002b0: 5c95 d5bd 2dbb b4bd dba6 bebd 6287 8fbd
000002c0: 2f33 86bd 75ec f8bd c8fc ccbd 408b 08be
000002d0: 9977 03bd e502 30bd a6c4 92bb 6094 2abd
000002e0: ba40 9d3c 0dad 773c c70a 33bd dad8 593c
000002f0: 10e0 043d e53f 0fbc 243b 6fbd f2c4 96bd
00000300: 35ef 38bc e71b f9bc ea2f 7dbd 4548 82bd
00000310: 138e 43bd c0f7 32bd f17f 0abe 6410 03be
00000320: 888e ecbd 0e26 26be 53c3 1fbe c87c bbbd
00000330: f21f 08be 78ed d7bd 0b89 28be 9e32 a2bd
00000340: eeac 57bd f4c0 60bd 1029 75bd 47cd e1bd
00000350: 6d34 6dbd ced1 a9bd 0542 62bd 0c1e e9bd
00000360: b54a 103d 3069 513b 9041 71bc 2ec8 c3bc
00000370: 227d 213b 7c58 f93c 3b18 253c 407d a63b
00000380: a793 d63c 2e64 70bd bb9c 73bd c7e4 f8bd
00000390: b235 16bd b29a 10bd 66cb 11bd 4ce1 89bd
000003a0: 5fee 6bbd 1451 c7bd 5037 f33c dbf0 0bbd
000003b0: f31e 1ebc 2cb4 313c bbc0 963b fd9f 89bb
000003c0: 8c86 ce3b 4b86 2fbd f7af 1dbd fefd 4bbd
000003d0: ab1c a2bc 177e d6bc c7a6 12bd 6c18 fe3b
000003e0: ae25 43bd 823f 34bd fabf 51bd 348d a33b
000003f0: 8610 6dbc 32d4 e23c eed8 a3bc 92e2 f83c
-0.087853484 -0.13613127 -0.13945174 -0.108752504 -0.08743361 -0.15143192 -0.11827215 -0.13391957
-0.12462619 -0.0010884315 0.040035803 -0.023161942 -0.03566399 0.03112156 0.008125641 -0.01555905
-0.025143223 0.002053908 0.015704785 0.02114806 -0.0029233648 0.04809285 0.05287275 0.03982283
0.052531864 -0.0026244652 0.027112452 0.0026783324 0.033972796 0.05291625 0.021105431 -0.020045904
0.017746564 0.008088154 0.04695103 0.037801918 0.021035176 0.0046400456 0.02688586 -0.005588667
-0.023773836 -0.028206255 0.00093987444 -0.023189265 0.00068314397 -0.0331407 0.039013308 -0.01791522
-0.032313887 0.039828807 -0.034694344 -0.03738685 0.0051655998 0.030978195 0.05090586 0.025366865
0.0861783 0.049567517 0.030950047 0.0815459 0.025797602 0.054502 0.053597026 0.17762674
0.11431389 0.17802021 0.1856449 0.18401636 0.13161716 0.16188197 0.12918192 0.13443556
0.031886175 0.02722556 0.0120510915 0.013741177 -0.0459939 -2.861049e-05 0.021192124 -0.035475243
-0.00039738906 0.07501616 0.09646172 0.05720227 0.09696023 0.06931389 0.0938552 0.070808515
0.05830106 0.077101775 0.018385017 0.030835789 0.0058609326 -0.01506032 -0.045302644 -0.019287754
0.034828093 -0.03941772 -0.011153514 0.019117286 -0.03706015 0.012244941 -0.030589096 0.010485832
-0.041174743 0.009124654 -0.006585298 0.005033085 -0.049264826 -3.590402e-05 -0.0025177936 -0.0698569
-0.05236494 -0.073772326 -0.023476264 -0.028655257 -0.005330425 -0.015697086 0.035759043 -0.011914802
0.03818583 0.014270701 0.03724312 0.057187986 -0.013070207 0.035024263 0.028462633 0.022537367
-0.025910245 0.021195222 0.025970599 -0.018775864 0.047081884 0.05158916 -0.0045331856 0.049415193
0.064689785 0.022909649 0.053184245 0.021967972 -0.0036559415 -0.0009995737 0.008349915 0.010588157
0.02654649 -0.036599293 -0.0035964092 0.016243272 -0.0062380703 -0.035642035 0.008144029 0.032514133
-0.010684558 -0.008566798 0.042378493 0.049847186 0.022858234 0.025829224 0.015664574 0.0048570647
-0.021628331 0.0033693993 0.04932573 0.04877558 0.08954445 0.12701981 0.09237762 0.12586759
0.104835965 0.10038935 0.07373609 -0.12330977 -0.10428879 -0.088247634 -0.09309169 -0.07008244
-0.06552731 -0.121544756 -0.10009152 -0.1333437 -0.03209648 -0.04297151 -0.0044790087 -0.041645408
0.019195903 0.015116942 -0.04371145 0.01329633 0.032440245 -0.008743261 -0.05840601 -0.07361783
-0.0112875 -0.030408813 -0.061813273 -0.063614406 -0.047742914 -0.043693304 -0.13525368 -0.12799221
-0.11550623 -0.16225454 -0.15601854 -0.091546595 -0.13293436 -0.105433404 -0.16458528 -0.07919811
-0.052655153 -0.054871514 -0.059853613 -0.11025482 -0.057911325 -0.0829197 -0.055238742 -0.11382684
0.035227496 0.0031953566 -0.014725104 -0.023899164 0.0024641235 0.0304377 0.010076578 0.005080849
0.026193453 -0.05868929 -0.05947564 -0.12153011 -0.0366723 -0.03530378 -0.035594366 -0.06732425
-0.057600375 -0.09732261 0.029689461 -0.034165245 -0.009650934 0.010846179 0.004600612 -0.0041999803
0.0063026603 -0.04285268 -0.03849789 -0.049802773 -0.01978906 -0.026183171 -0.035803583 0.007754376
-0.047643356 -0.04400588 -0.051208474 0.004991198 -0.0144692715 0.027689073 -0.020000901 0.030381475

conv3.bias f4 [128]
00000000: b175 623d e232 bbbc 58eb 02bd d584 c53c
00000010: 4310 66bc 1fe7 383b 58ed 723c 9cd4 c6bc
00000020: 82f1 e8bc c81f d53b 9c54 bbbc 3bd6 0ebd
00000030: 2c5f f63c 8519 b1bb 0c28 86bc 48a4 0f3d
00000040: c4d2 413d 5bdf 85bc 118c fd3b 0221 d7bc
00000050: a253 3bbd 2dcb 90bb 1995 1bbd 0e39 1cbc
00000060: e484 813d 710f 29bd d14a 7b3c d96d c2bb
00000070: dad3 0abc 3e74 c2bc 1a24 1fbd 60a8 7cbc
00000080: 5f25 963c 1838 c9bc 8cae b23c 947a 2dbd
00000090: 7302 423d 64c2 babb 15e8 67bc e4a0 f93c
000000a0: 2bcc 91bc d53c 19bc 6f57 25bd af54 51bd
000000b0: b86b 76bb b5a6 653d 49fd c3bc c292 d0bc
000000c0: d9d1 abbc 164f 5c3d 105a 9e3c 39b8 713d
000000d0: eb29 733c 04c9 1c3a 1c5c b0bc 3db2 8e3b
000000e0: 2377 a1bc ad39 d53c 4681 27bd 2a9e 5b3b
000000f0: 0274 04bd ec9b 02bd fc28 293d 6f91 95bb
00000100: b470 1ebd b53b cfbb f693 93bc 0556 abbc
00000110: a051 28bd fec3 023c 65a5 51bd dcb7 4dbd
00000120: fb3d 0abd b3b7 53bd f42e c13c 3c03 19bc
00000130: ac29 463a 8450 8bbc 1fbc d5bc e2a3 353d
00000140: 48e2 e1bc 26a2 32bd 321c 5c3d d5cb ed3c
00000150: 25e3 bdbc d72c 23bd 56d3 363d 7a72 113c
00000160: ab0d 2bbd 6927 f9bc 3fcd 20bd fa2d 53bc
00000170: 6a7a 483d ec58 a6bc 792a 58bc 2158 193d
00000180: 19b9 07bd fe37 7f3d 7341 f9ba 2b32 b8bc
00000190: bc83 b7bb 7ecd 17bd 764a 523d 7e57 8fbc
000001a0: 641c 123d 5a7f e2bb 823b 19bc 57b5 e2bc
000001b0: f391 823c 257a 4e3c 7935 25bd 4134 653c
000001c0: 28b6 cdbc 65ab 66bd ccbb 02bc b4da 4d3c
000001d0: a606 c8b7 7551 95bc 39b7 013c 6a69 1ebd
000001e0: 3d59 55bd 9cd5 643c 9fd7 1f3d e833 ba3b
000001f0: 5d01 5fbd 895d 5b3c 445d 3bbc 8d06 c0bb
0.05528802 -0.022851411 -0.031962723 0.02411119 -0.014041963 0.002821393 0.014827095 -0.024271302
-0.028435472 0.0065040328 -0.022867493 -0.034872275 0.030074678 -0.0054046535 -0.016376518 0.03506878
0.047320142 -0.016341856 0.0077376445 -0.026260857 -0.045734055 -0.0044187517 -0.037983987 -0.009535087
0.06324175 -0.04127449 0.015337662 -0.005933505 -0.008473361 -0.02373707 -0.03885279 -0.015421003
0.018328367 -0.02456288 0.021811746 -0.042353228 0.047365617 -0.0056994427 -0.014154454 0.030472226
-0.01779755 -0.009352882 -0.040366586 -0.05110615 -0.0037600826 0.056067187 -0.023924487 -0.025460605
-0.020974087 0.05378636 0.019330055 0.05901358 0.014841537 0.00059808814 -0.021528296 0.0043547438
-0.01971013 0.026028479 -0.04089477 0.0033511021 -0.032337196 -0.03188698 0.04129885 -0.004564456
-0.0386817 -0.0063242563 -0.01801489 -0.02091504 -0.04109347 0.0079812985 -0.051183123 -0.05022417
-0.033750515 -0.05168886 0.02358196 -0.00933915 0.000755931 -0.017006166 -0.02609068 0.044345744
-0.02757372 -0.043611668 0.053737827 0.029027859 -0.0231796 -0.039837684 0.04463514 0.008877391
-0.04176108 -0.0304143 -0.039258238 -0.01288938 0.04894487 -0.020306073 -0.01319372 0.037437562
-0.033135507 0.062309258 -0.0019016698 -0.02248486 -0.0056004208 -0.037061207 0.051340543 -0.017497774
0.035671607 -0.006912154 -0.009352567 -0.02767436 0.015938735 0.012602364 -0.0403342 0.013989509
-0.025111273 -0.0563158 -0.007979345 0.01256435 -2.3844954e-05 -0.018227318 0.007917219 -0.03867475
-0.052087057 0.013966944 0.03902399 0.0056824572 -0.05444466 0.013389 -0.0114358105 -0.005860156

fc.weight f4 [2, 128]
00000000: 8467 95bd c984 9b3d 09f1 013e ec8c 13be
00000010: 1143 fabd 313d e83d 6441 d4bc 4be9 b63d
00000020: 2135 3fbd 3c4e 98bd f48a 2f3e a435 4fbb
00000030: d16c 823d bdc9 0a3e b635 1e3e 20fa 00be
00000040: b8f6 ecbd 9664 bdbd df00 5a3d 8250 b5bd
00000050: e738 7a3e 738d 393e 9a5e f63c d986 1d3e
00000060: b9c3 eebd a426 38be 8a5e 87bc 1224 073e
00000070: a6f1 4d3e f0eb f93d 0e35 11be 2345 563e
00000080: 1c2c 1b3e f7dd 3a3e ba75 7dbd cbab fd3d
00000090: 8b57 e7bd 6dfa 003e c933 2a3e 1fc2 0bbd
000000a0: 5199 f33c 3d1f 0bbd aff0 583c 69f4 183e
000000b0: bd54 83bd f3f3 c5bc 7d41 8cbd 6f09 50bd
000000c0: 71ef eebd 8775 adbd bdb8 3d3d be4e 10be
000000d0: 9ba7 1f3e b300 24be f421 62ba bcc4 8ebd
000000e0: 3912 f93d ee34 173e 17ea 0f3e 7732 1ebe
000000f0: 98d1 883d 7e83 9fbd a23e a2bd b9e4 e13d
00000100: 4d37 073e 76b0 093e 20bd 883d ce0c 253e
00000110: 0474 873d 6daa 0dbd 848c f43d ee32 813e
00000120: 88d6 973d 972d 043e 6f87 34bd 5cd3 713d
00000130: 1fe1 6e3d 7372 fd3d 98cf 92bc 98af 9abd
00000140: 6aed 233e f0be a8bd 3678 40bd e1e8 3cba
00000150: df02 973d bd1e dfbc ac54 0fbe 910f edbd
00000160: 0776 243e de3d 3cbe d698 7d3e 3354 3abe
00000170: 5cbc dfbd d80a a3bd cee7 a2bc c8dd c5bd
00000180: d204 c63d 2251 8abd 5f24 3fbd d3d3 41bd
00000190: e888 09be 6e2e bf3d b26f 97bd 696c 51be
000001a0: 1433 cbbd d6c9 cb3d a3df 923e 796c 5cbe
000001b0: 3577 03bd 771e 11be 9223 263e 02fe b93d
000001c0: 55ac 263e e293 46be 6bc6 083e 7d4d 94bd
000001d0: d3c5 1a3e c635 24bd 5625 443e 53a3 bb3d
000001e0: 4767 af3d 7f47 17be 6da5 e5bd 248d 31bb
000001f0: b5f0 193e 1327 893e c04c f53d 5d71 89bd
00000200: e2a7 113e 03d2 f2bd 93b4 07be c10a 2a3d
00000210: 094e aa3d 7835 08be 187e 06bd d9b2 15be
00000220: 111f 473d 70db 173e f476 38be a523 f43c
00000230: 3de9 9c3d c25a 0dbe b9cd dfbd 3bf2 fc3d
00000240: b5fb 5c3d 3dac c63d b974 32be edf3 bc3d
00000250: a0c4 5fbe b8cf 0fbe 6367 16bd 4c33 97bd
00000260: eb41 1f3d f3b8 fa3d 3e27 cfbc 0f19 d9bd
00000270: 63cb 47bd 1929 fabd ec1b 473e f3af 85be
00000280: dd97 ffbd 34ac 30be 4ed7 71bd b458 d1bd
00000290: e74d 7e3d 4feb 2fbe abf2 25bd 7a42 273e
000002a0: 3bb5 36be ba66 573d b9f3 3f3d 44b1 f2bd
000002b0: ce43 a1bb e632 153e a1d4 bf3d 05b7 183d
000002c0: 1f18 323e 71df 1b3e 2687 3abd 1edb a03d
000002d0: eace 90bd 4e68 593d 531b a43c 3888 ddbc
000002e0: 07d6 5abd 2729 86bd 8354 e8bd 7686 4c3e
000002f0: e6c4 01bb 1499 823d 38a9 d93d facc 19be
00000300: 8fc1 eebd 3342 1bbd 70ee 29be b6de d0bc
00000310: bb07 9abd c751 92bc 9470 31be dbfa 64be
00000320: 31ef 05be a919 2cbe b2f6 ea3d 7549 6c3d
00000330: c326 32be 890b e3bd a0e4 a83d 4d0f 0f3e
00000340: 294a 91be 9f32 a3bc c403 f23d 53cf a53d
00000350: 5a14 11be 1b0e d3bb c1ef 0b3d fef2 873d
00000360: 1038 14bd d1ce 553d 37cd 64be e8e5 203e
00000370: ab22 b23d 81bf 453e f70b d6bb 6050 123e
00000380: dd60 22be c5d4 b83d a562 6ebd dda3 093d
00000390: 8e1d 833d 38fb c7bd 542d 0f3e 7447 b93d
000003a0: f658 0c3e 0f79 78be ef13 21be f224 533e
000003b0: 6dea 8fbc cca4 e53d f2c8 9fbd 0a13 04be
000003c0: 52d1 f6bd a3a6 273e 364a 82bd c264 c93d
000003d0: 98a1 6bbd 7d32 38bd 7233 7dbd d783 f0bd
000003e0: d3b5 dbbd 67d5 ce3d aade 893d a828 81bd
000003f0: 8ad9 19be 0686 e9bd 5821 f4bd 2073 103e
-0.07295135 0.07593686 0.12689604 -0.14409226 -0.12219823 0.11339796 -0.025910087 0.08931216
-0.046681527 -0.07436797 0.1714285 -0.0031617666 0.06368411 0.1355352 0.15450177 -0.12595415
-0.11570495 -0.09247701 0.053223487 -0.08853246 0.24435769 0.18120365 0.030074406 0.15383472
-0.11658425 -0.1798349 -0.016524572 0.13197353 0.20111713 0.12203205 -0.14180395 0.20924811
0.15153545 0.18248735 -0.06187985 0.123862825 -0.11295994 0.1259553 0.16621317 -0.034120675
0.029736193 -0.033965338 0.013240977 0.14936985 -0.06412647 -0.024164176 -0.068484284 -0.050790247
-0.116667636 -0.08469682 0.04631876 -0.14092538 0.1559128 -0.16015892 -0.0008626275 -0.06971118
0.12161679 0.14766285 0.14054142 -0.15448938 0.06680602 -0.07788752 -0.079221025 0.110299535
0.1320469 0.13446221 0.06676698 0.16118166 0.06613925 -0.03458636 0.11940864 0.2523417
0.074139655 0.12908016 -0.044074472 0.05903946 0.05832016 0.12375345 -0.017921254 -0.07553023
0.16008535 -0.082395434 -0.046989642 -0.00072063325 0.073735945 -0.027236337 -0.13997144 -0.11575235
0.16060649 -0.18382975 0.24765334 -0.18196182 -0.109245986 -0.07961053 -0.019885924 -0.09661442
0.09668888 -0.06753756 -0.046665546 -0.047321152 -0.13431132 0.09335028 -0.07394351 -0.20451511
-0.09921852 0.099506065 0.28686246 -0.21525754 -0.032096107 -0.14171778 0.16224506 0.09081651
0.16276677 -0.1939235 0.1335694 -0.07241342 0.15114526 -0.040090345 0.19154868 0.09162011
0.085646205 -0.14773367 -0.11213193 -0.0027092183 0.15033229 0.26787624 0.119775295 -0.067110755
0.14224198 -0.11856463 -0.13252477 0.041514162 0.08315665 -0.13301647 -0.032835096 -0.14619006
0.04861361 0.14829803 -0.18014127 0.029802153 0.07661674 -0.13804153 -0.1092791 0.12350889
0.053950984 0.097008206 -0.17427339 0.09226213 -0.2185235 -0.14044082 -0.03671969 -0.07382831
0.038881224 0.122423075 -0.025287267 -0.10600483 -0.04877795 -0.1221487 0.19444245 -0.261108
-0.124801375 -0.1725319 -0.05904322 -0.10221997 0.062086012 -0.17179607 -0.04051463 0.16333953
-0.17842571 0.052588202 0.04686329 -0.11850217 -0.004921413 0.14570197 0.093667276 0.037283916
0.17392014 0.15221955 -0.045539044 0.07854293 -0.07070716 0.05307799 0.02003256 -0.027042493
-0.05342677 -0.06550818 -0.11344244 0.19973168 -0.0019801199 0.063768536 0.10627979 -0.15019599
-0.11658012 -0.03790493 -0.16594863 -0.025496822 -0.07521006 -0.01786126 -0.17328101 -0.22361319
-0.13079526 -0.16806664 0.11472835 0.05768724 -0.17397599 -0.110861845 0.08246732 0.1397068
-0.28376892 -0.019921599 0.118171245 0.080961846 -0.1416792 -0.0064408905 0.034164194 0.06638144
-0.036186278 0.05219919 -0.22343908 0.15712702 0.08698019 0.19311334 -0.006532188 0.14288473
-0.15857263 0.090249576 -0.058199544 0.033603538 0.064021215 -0.09764713 0.13982135 0.09046832
0.13705811 -0.2426493 -0.1573026 0.20619562 -0.017567838 0.11213073 -0.07801999 -0.12897888
-0.120516434 0.1637216 -0.06361811 0.09833671 -0.057527155 -0.044970024 -0.06181664 -0.117438965
-0.107280396 0.10099297 0.06731923 -0.06306583 -0.15024391 -0.11402516 -0.11920422 0.14106417

fc.bias f4 [2]
00000000: 0265 d9bd c8f3 b13d
-0.10614969 0.08689076
